blazeface.onnx (onnx, 408713 bytes, 74 tensors)

1 f4 [24, 3, 5, 5]
0	0x3d16b920	0.036797643
1	0xbd4e34e9	-0.050343428
2	0xbda8e87a	-0.082474664
3	0xbdd15df8	-0.10223001
4	0xbd24fd5a	-0.040280677
5	0xbd1e228c	-0.038607165
6	0x3d1a9afd	0.037745465
7	0x3da8be25	0.08239392
8	0xbbd32001	-0.006443024
9	0x3b9c0a45	0.0047619664
10	0x3cf2d5da	0.029642988
11	0x3dbc9613	0.09208312
12	0x3dc310be	0.09524678
13	0xbcda7649	-0.02666773
14	0x3b8316d6	0.004000525
15	0x3d10a873	0.035316896
16	0xbcb810ef	-0.022469012
17	0xbd6cd10d	-0.057816554
18	0xbd6b5d40	-0.057461977
19	0x3c64b007	0.013957984
20	0x3d398bab	0.045299213
21	0x3cb2c682	0.021823172
22	0xbb4485e9	-0.0029987043
23	0x3c8da7fb	0.017292013
24	0x3d3c3004	0.04594423
25	0xbd6bd87a	-0.057579495
26	0xbcaaf65c	-0.020869426
27	0x3c97d079	0.018532025
28	0x3c381389	0.011235126
29	0x3d2fc940	0.042916536
30	0xbdb373ef	-0.08762347
31	0x3df4ba8c	0.119496435
32	0x3e524b9b	0.20536654
33	0x3df5fa7c	0.12010667
34	0x3db9c7e9	0.09071333
35	0xbc45faeb	-0.012083749
36	0x3e02f4cb	0.12788694
37	0x3e07ec69	0.13273777
38	0x3cd8a033	0.026443576
39	0x3d322d6e	0.043500356
40	0xbd6c4d33	-0.05769081
41	0xbd8546c7	-0.0650764
42	0xbddfcd78	-0.10927862
43	0xbdd71590	-0.105021596
44	0xbc8a8aa4	-0.016911812
45	0xbd64aef1	-0.0558309
46	0xbdca058a	-0.09864338
47	0xbdf7a0be	-0.12091206
48	0xbdac8894	-0.08424488
49	0xbd0a8a60	-0.03382337
50	0xbd8a81ec	-0.06763062
51	0xbbe9ccfb	-0.0071350313
52	0x3d01e3f7	0.031711545
53	0xbce58fbc	-0.02802264
54	0x3c453c96	0.012038371
55	0xbd2191b5	-0.039445598
56	0x3e0b1535	0.13582309
57	0x3e3b67ee	0.18301365
58	0x3d95eebd	0.07320926
59	0x3d83479b	0.06410142
60	0x3ca305df	0.01990026
61	0x3e054c82	0.13017467
62	0x3dd9dad0	0.10637438
63	0x3bdeb081	0.0067959432
64	0x3c807928	0.015682772
65	0xbd261f03	-0.04055692
66	0xbd57229a	-0.052523233
67	0xbd867898	-0.0656597
68	0xbd8264a0	-0.06366849
69	0x3baa7639	0.0052020815
70	0xbd1e6c96	-0.038677774
71	0xbd8cad05	-0.06868938
72	0xbdb13d5b	-0.08654281
73	0xbd6d1271	-0.057878915
74	0xbd07fb26	-0.0331985
75	0x3d35a7f2	0.04434962
76	0xbd7bb4bd	-0.061451662
77	0xbd3e77a1	-0.046500806
78	0x3c9989d3	0.018742478
79	0x3e1f560c	0.15560168
80	0xbd34888f	-0.044075545
81	0xbe3cb70c	-0.18429202
82	0xbe3fc02c	-0.18725652
83	0xbdffba32	-0.12486686
84	0x3d85ad82	0.065272346
85	0x3c33e249	0.010979244
86	0xbd22b397	-0.03972205
87	0xbd25f311	-0.04051501
88	0xbca50707	-0.020144952
89	0x3d53d145	0.051713247
90	0xbc58fd10	-0.013243929
91	0x3d06e371	0.03293175
92	0x3cc73e8f	0.024321822
93	0x3ca22662	0.019793693
94	0x3c163836	0.009168675
95	0xbd6b59e2	-0.057458766
96	0x3b72d171	0.0037051106
97	0xbb82bfe6	-0.003990161
98	0x36b22634	5.309261e-06
99	0xbbf92ca0	-0.0076041967
100	0x3d8b4ec4	0.06802133
101	0x3e3e7a95	0.18601449
102	0x3e329281	0.174387
103	0x3d8734b6	0.06601851
104	0xbd6852cb	-0.056719583
105	0x3e3d2a8a	0.18473259
106	0x3ed1f874	0.41009867
107	0x3ef7f22e	0.48426956
108	0x3e6e7935	0.23288424
109	0xbd91b44c	-0.07114467
110	0x3d5d7821	0.054069642
111	0x3ead8e0f	0.33897445
112	0x3eb99db5	0.36253133
113	0x3e07aa44	0.13248545
114	0xbd689dda	-0.056791164
115	0xbd2d8a2c	-0.0423681
116	0x3ba4f847	0.00503448
117	0x3d16680c	0.03672032
118	0xbcb40792	-0.021976266
119	0xbda9523d	-0.08267639
120	0xbd80139e	-0.06253742
121	0xbdc1abaf	-0.09456574
122	0xbd87ed37	-0.06637042
123	0xbdbeb08a	-0.09311016
124	0xbda7d76d	-0.08195386
125	0xbd915867	-0.070969395
126	0xbe1ca5ed	-0.1529767
127	0xbe09a1ba	-0.134406
128	0xbe25e41c	-0.16200298
129	0xbd58b1b5	-0.05290385
130	0xbe1e20a2	-0.15442136
131	0xbe857c93	-0.26071605
132	0xbe74715e	-0.23871371
133	0xbe3a23a4	-0.18177658
134	0xbbcb6708	-0.0062073506
135	0xbd850026	-0.06494169
136	0xbe3b92b5	-0.18317683
137	0xbe7003fa	-0.23439017
138	0xbdf05259	-0.117344566
139	0x3cbd761b	0.023127606
140	0x3ca6b940	0.020352006
141	0xbd8b52f5	-0.06802932
142	0xbdaa2a8c	-0.083088964
143	0xbc91417d	-0.017731423
144	0x3d845d24	0.06463078
145	0x3e04375c	0.12911743
146	0x3dc691e6	0.09695797
147	0x3df06984	0.117388755
148	0x3dc66f1f	0.096891634
149	0x3dc2dead	0.09515128
150	0xbd11e82a	-0.0356218
151	0x3cc1b60e	0.02364638
152	0x3c754646	0.014970368
153	0x3cbb8cb5	0.022894243
154	0xbdaa6b07	-0.08321195
155	0x3dc7a4bb	0.09748217
156	0x3dffc22d	0.12488208
157	0x3d8af719	0.067854114
158	0x3e20e451	0.15712096
159	0x3d25d580	0.040486813
160	0x3cb4a950	0.02205339
161	0x3dbcc249	0.092167445
162	0x3dc57c16	0.09642808
163	0x3db934c1	0.09043265
164	0xbaf92d89	-0.0019010763
165	0xbcae34e0	-0.021265447
166	0x3e04a43d	0.12953277
167	0x3e027bfb	0.12742607
168	0x3e015054	0.12628299
169	0x3ccd6397	0.025071902
170	0xbe1a2465	-0.15052946
171	0xbd02c45c	-0.031925544
172	0xbc6aa4b4	-0.014321495
173	0x3d77f7ed	0.060539175
174	0x3c09d656	0.008412918
175	0xbcb65477	-0.022257073
176	0xbabda79d	-0.0014469508
177	0xbb92b6d0	-0.0044773594
178	0x3d06ce7d	0.032911766
179	0xbd529e06	-0.051420234
180	0xbc62d4bb	-0.013844664
181	0xbdb9bbb3	-0.09069004
182	0xbe0c0589	-0.13673986
183	0x3c85bbda	0.016324926
184	0x3be50ebf	0.0069902833
185	0xbd2b9c92	-0.041897364
186	0xbddc8c59	-0.10768957
187	0xbe1f4e62	-0.15557244
188	0xbd83b11f	-0.064302675
189	0xbdaac953	-0.08339181
190	0x3c8d6955	0.01726214
191	0x3ce75116	0.028236907
192	0xbd357f04	-0.044310585
193	0xbd57a355	-0.052646
194	0xbd95475a	-0.07289
195	0xbc888886	-0.016666662
196	0x3bf3bf82	0.007438601
197	0x3b9dbc56	0.004813711
198	0xbaa3f64e	-0.0012509318
199	0x3c16a736	0.00919514
200	0x3d872178	0.065981805
201	0x3d26c4f4	0.040715173
202	0x3c79cef5	0.015247096
203	0x3d090e57	0.03346094
204	0xbd9b2f05	-0.07577328
205	0x3d9dcc4b	0.077049814
206	0xbba07cdd	-0.0048976974
207	0xbcc8f16a	-0.024529178
208	0x3d8be628	0.06831008
209	0x3cb56e61	0.02214736
210	0x3cb7f5d5	0.022456089
211	0xbd282ff7	-0.041061368
212	0xbda53cb6	-0.0806822
213	0xbb968315	-0.004593263
214	0xbcbf8b01	-0.023381712
215	0x3d03fe1a	0.032224752
216	0x3c0c2401	0.008553506
217	0xbd8928e5	-0.06697253
218	0xbd300bb7	-0.042979922
219	0xbcd961cf	-0.026535897
220	0x3d02754a	0.031850137
221	0x3cb61d73	0.02223084
222	0xbc3e8a2e	-0.011629624
223	0x3d104491	0.03522164
224	0x3d5049d6	0.050851665
225	0xbd6174a7	-0.05504289
226	0xbd89a4c5	-0.067208804
227	0x3d20a153	0.03921635
228	0x3d1d29e8	0.038370043
229	0xbd4c5c4c	-0.04989271
230	0x3d12f295	0.035875876
231	0x3d91bba0	0.07115865
232	0x3e57725c	0.21039718
233	0x3e7a8f82	0.24468806
234	0x3d412e2b	0.04716317
235	0x3cbea476	0.02327178
236	0xbced6725	-0.028979847
237	0xbcef067d	-0.029177899
238	0x3db9bd7c	0.090693444
239	0x3d6a0ef4	0.057143167
240	0x3c50d72d	0.012746614
241	0xbdb3f380	-0.08786678
242	0xbe2b4c4c	-0.16728324
243	0xbe0049df	-0.1252818
244	0xbd8785af	-0.06617295
245	0xbc755a57	-0.014975152
246	0xbcde3d18	-0.027128741
247	0xbd34d3a3	-0.044147145
248	0xbb335cf7	-0.0027368644
249	0x3c1168ec	0.008875113
250	0xbc3d7576	-0.011563649
251	0xbdb2503a	-0.08706708
252	0xbd9401e0	-0.0722692
253	0xbd64c984	-0.055856243
254	0xbc13e973	-0.009027827
255	0xbc87f7ae	-0.016597595

2 f4 [24]
0	0x3e7a66a1	0.24453212
1	0x3ea67cde	0.3251714
2	0x3bbfbf99	0.0058516976
3	0x3e01e820	0.12686205
4	0x3e0ea1c6	0.13928899
5	0x3d64319b	0.05571137
6	0xbf387be5	-0.7206405
7	0x3dde5e74	0.10857859
8	0xbf2edc08	-0.6830449
9	0x3dab21d0	0.083560586
10	0x3e559663	0.20858149
11	0x3e5d2e9f	0.21599816
12	0xbeaf361a	-0.34220964
13	0x3e400205	0.1875077
14	0x3de709e8	0.11281186
15	0x3e575960	0.21030188
16	0x3e33684a	0.17520252
17	0xbfaa4cbd	-1.3304669
18	0xbe821155	-0.25403848
19	0x3ce9213f	0.028458236
20	0xbdc7eff0	-0.09762561
21	0x3d0c5466	0.034260176
22	0xbf82ebd7	-1.0228223
23	0xbf9df70a	-1.2341015

3 f4 [24, 1, 3, 3]
0	0x3dc899d7	0.097949676
1	0xbde6dbde	-0.11272405
2	0x3df825d4	0.1211659
3	0xbe89841e	-0.2685861
4	0xbf5d3f86	-0.86425054
5	0x3edaa37c	0.42702854
6	0xbd786b0d	-0.060648967
7	0xbe14ee83	-0.1454411
8	0xbe257fb9	-0.16162004
9	0x3e078f6b	0.13238303
10	0x3b41f49a	0.0029595257
11	0x3bbd7583	0.0057818308
12	0x3de12b82	0.109946266
13	0x3e9add57	0.30246994
14	0x3da19200	0.078891754
15	0xbda8798e	-0.0822631
16	0xbfba01c3	-1.4531788
17	0x3eee76dd	0.4657506
18	0x3e64546a	0.22297826
19	0xbd6ecbf9	-0.058299992
20	0x3e00f86c	0.12594765
21	0xbd485d0d	-0.048916865
22	0xbf7621b9	-0.96145207
23	0xbe90d5a9	-0.2828801
24	0x3dc289a6	0.094989106
25	0x3d794626	0.060857914
26	0xbccf068a	-0.025271673
27	0x3db717bb	0.08940073
28	0x3ed11a42	0.40840346
29	0xbd595d2a	-0.053067364
30	0x3eb6e7de	0.35723776
31	0xbfa3fa95	-1.2810847
32	0xbc2680d5	-0.010162552
33	0xbe6b37c5	-0.22970493
34	0x3f193954	0.598531
35	0xbea6a99a	-0.3255127
36	0xbdc070d7	-0.093965225
37	0x3e9f3710	0.31096697
38	0x3d9296a3	0.07157638
39	0x3e7502eb	0.23926894
40	0xbfe11c2b	-1.7586721
41	0xbe58f1e9	-0.21186031
42	0x3d23a059	0.03994784
43	0xbd7bb3f7	-0.061450925
44	0xbd952f69	-0.072844334
45	0xbe11866f	-0.14211439
46	0x3e59bd05	0.21263511
47	0xbe9886ae	-0.29790252
48	0x3f828149	1.0195705
49	0x3ec0e459	0.37674215
50	0xbe499542	-0.19685844
51	0x3e3d1378	0.18464458
52	0x3e876980	0.26447678
53	0x3e67c03a	0.22631922
54	0xbea3eeb4	-0.32018054
55	0xbe679741	-0.22616293
56	0xbe453ff1	-0.19262673
57	0xbf1afbe8	-0.6054063
58	0xbf28c81e	-0.65930355
59	0xbe07d1c6	-0.13263616
60	0x3db9407f	0.09045505
61	0xbc0cadeb	-0.008586387
62	0x3d8671ab	0.06564649
63	0xbd5320c7	-0.05154493
64	0xbeaec111	-0.34131673
65	0xbd6d9862	-0.05800665
66	0xbd2d9682	-0.042379864
67	0xbf9de7d5	-1.2336375
68	0x3eea6672	0.45781285
69	0x3ddb08a6	0.10695009
70	0x3e6e5b3a	0.23276988
71	0xbb2d1f9e	-0.002641655
72	0x3d2ebd4c	0.042660996
73	0xbf97cdbb	-1.1859659
74	0x3e7e968a	0.24862114
75	0x3e1d03eb	0.15333526
76	0xbf2e83a9	-0.6816965
77	0x3e6ddfc7	0.23229896
78	0x3cdfb4d8	0.027307913
79	0x3e99ff27	0.30077478
80	0x3d95692d	0.07295451
81	0xbd450da3	-0.048108708
82	0x3e4c7800	0.19967651
83	0x3ec09b56	0.37618512
84	0x3eae99ed	0.3410181
85	0x3f3d2e17	0.7389845
86	0x3e266001	0.1624756
87	0x3cae2ed4	0.021262564
88	0xbea66793	-0.32500896
89	0xbe7a5fb3	-0.24450569
90	0xbde03451	-0.109474786
91	0xbf0e0ae6	-0.5548538
92	0xbe92dc2c	-0.28683603
93	0xbe085036	-0.13311848
94	0x3e87a541	0.26493266
95	0xbed4144f	-0.41421744
96	0x3ea28286	0.31740206
97	0x3f5a5285	0.85282165
98	0xbd77c041	-0.060486082
99	0xbce9e51d	-0.028551633
100	0x3f66d289	0.90165
101	0xbe619e48	-0.22033036
102	0xbe30b215	-0.17255433
103	0x3fac9d7b	1.3485559
104	0x3f13ec82	0.5778276
105	0xbea13c95	-0.31491533
106	0xbec1d984	-0.37861264
107	0xbebf38f6	-0.37348145
108	0x3da02b21	0.07820726
109	0x3ec33a08	0.38130212
110	0xbd855372	-0.065100566
111	0x3dc7597c	0.09733865
112	0x3f6ab7a3	0.9168646
113	0xbefe70db	-0.49695477
114	0xbf1035fd	-0.5633238
115	0xbf0145a2	-0.50496876
116	0xbd9d1311	-0.07669652
117	0x3d9eaca8	0.07747775
118	0xbf85288a	-1.0402997
119	0x3eaa426d	0.33253804
120	0x3e1ed342	0.15510276
121	0xbedc7249	-0.43055943
122	0x3f448de8	0.7677903
123	0xbbaf3b63	-0.0053476556
124	0x3ea7fa51	0.32808164
125	0xbe47035b	-0.19434874
126	0xbd16505f	-0.03669774
127	0x3d69e5d3	0.057103943
128	0xbb765d98	-0.0037592407
129	0x3e299848	0.16561997
130	0x3e1c47f9	0.1526183
131	0x3b9e1f0f	0.00482548
132	0x3f3e2822	0.7427999
133	0xbff730a5	-1.931172
134	0x3e9b19fc	0.30293262
135	0xbd4c13b1	-0.049823467
136	0xbe90e212	-0.28297478
137	0xbcae0683	-0.02124334
138	0x3d21a408	0.039463073
139	0xbf8c4fed	-1.0961891
140	0x3e2fa879	0.17154111
141	0xbbb63d10	-0.0055614784
142	0x3d107321	0.035266045
143	0xbced17b2	-0.028941963
144	0x3d3c31cf	0.04594594
145	0x3db10cc8	0.08645016
146	0x3c1ab19c	0.009441759
147	0x3dce95ab	0.10087141
148	0xbf809bc8	-1.0047541
149	0xbbc786a3	-0.006089048
150	0xbe50634e	-0.20350382
151	0x3fa2b3f0	1.2711163
152	0xbe214051	-0.15747191
153	0x3f115b6c	0.56780124
154	0x3f7ba7cc	0.9830291
155	0x3f0d656e	0.55232894
156	0x3cf64c00	0.030065536
157	0x3f8b29a1	1.0872079
158	0x3f730ce7	0.9494156
159	0x3e30a727	0.17251264
160	0x3e4fb739	0.20284738
161	0x3e49fd56	0.19725546
162	0xbcd7a7da	-0.026325155
163	0xbdcf4133	-0.10119858
164	0x3d0edcde	0.034878604
165	0xbe2cb39d	-0.16865392
166	0xbf91e4f1	-1.1397992
167	0x3e3f07cc	0.18655318
168	0x3d98ce71	0.074612506
169	0x3f228510	0.6348429
170	0x3eff9663	0.49919423
171	0x3ebf5c53	0.37375125
172	0xbe069b18	-0.13145101
173	0x3ddcbb36	0.10777895
174	0x3ee38bb1	0.44442514
175	0xbf5b15c9	-0.85580117
176	0xbf031955	-0.5121053
177	0x3dc175c5	0.09446291
178	0x3e77bbdb	0.24192755
179	0xbe98d675	-0.29851118
180	0xbf0cb96d	-0.5497044
181	0xbec039b4	-0.37544024
182	0x3ea3d20e	0.31996197
183	0xbd6a27cc	-0.05716686
184	0xbf5e8021	-0.8691426
185	0x3f30ced2	0.6906558
186	0x3ebbce5b	0.36680874
187	0x3f2819bc	0.6566427
188	0x3cbbf169	0.022942262
189	0x3dc36b18	0.09541911
190	0x3d76b43e	0.060230486
191	0x3d8ed40c	0.069740385
192	0xbe6f5e35	-0.23375781
193	0xbe8f2977	-0.27961323
194	0x3e38cd0a	0.18046966
195	0x3c699512	0.014256733
196	0xc003d64e	-2.0599551
197	0xbf1274fc	-0.57209754
198	0xbf120849	-0.5704389
199	0xbedc4573	-0.43021736
200	0xbe0e48aa	-0.13894907
201	0xbef3d1ba	-0.47620946
202	0xbe96976a	-0.29412395
203	0x3ecaf6bc	0.39641368
204	0x3e3f72c0	0.18696117
205	0x3f6f52bb	0.9348561
206	0x3ef188ba	0.47174627
207	0x3eb4b035	0.35290685
208	0x3f4ac73d	0.79210263
209	0x3ea48422	0.3213206
210	0xbe3f3f21	-0.18676426
211	0x3f1b8ad3	0.60758704
212	0x3f484beb	0.7824084
213	0xbf06173b	-0.52379197
214	0xbedab83f	-0.42718694
215	0xbd982be3	-0.07430246

4 f4 [24]
0	0x00000000	0.0
1	0x00000000	0.0
2	0x00000000	0.0
3	0x00000000	0.0
4	0x00000000	0.0
5	0x00000000	0.0
6	0x00000000	0.0
7	0x00000000	0.0
8	0x00000000	0.0
9	0x00000000	0.0
10	0x00000000	0.0
11	0x00000000	0.0
12	0x00000000	0.0
13	0x00000000	0.0
14	0x00000000	0.0
15	0x00000000	0.0
16	0x00000000	0.0
17	0x00000000	0.0
18	0x00000000	0.0
19	0x00000000	0.0
20	0x00000000	0.0
21	0x00000000	0.0
22	0x00000000	0.0
23	0x00000000	0.0

5 f4 [24, 24, 1, 1]
0	0x3ea1a18d	0.31568566
1	0x3d8087f4	0.06275931
2	0x3ece6e64	0.40318596
3	0x3f0532d3	0.52030677
4	0x3caf822e	0.02142438
5	0x3f277d63	0.654257
6	0xbf029b70	-0.5101843
7	0xbeed2c7a	-0.46322995
8	0x3f92fdcc	1.1483703
9	0xbf555b31	-0.8334227
10	0xbb04ce63	-0.0020264618
11	0x3f28d7c7	0.6595425
12	0xbe7bd7ba	-0.24594012
13	0x3f37f93e	0.7186469
14	0x3e133e08	0.14379132
15	0xbbdb67df	-0.006695732
16	0x3ecb4b2d	0.39705792
17	0xbef79b7f	-0.48360822
18	0xbea5c943	-0.32380113
19	0x3f500412	0.8125621
20	0x3ed9b9b7	0.42524502
21	0xbdc77c89	-0.0974055
22	0x3e3f6536	0.18690953
23	0x3ed8ab32	0.42318112
24	0xbc730358	-0.01483234
25	0x3f21aeb9	0.6315723
26	0x3d8718b1	0.065965064
27	0x3c853555	0.016260782
28	0xbd8f491a	-0.06996365
29	0xbf483a2b	-0.7821376
30	0x3df021c1	0.11725188
31	0x3e5fcaf4	0.21854764
32	0x3e753c96	0.23948893
33	0x3ea9f028	0.33191037
34	0x3bf6b4f6	0.0075288964
35	0xbf0773f7	-0.52911323
36	0x3eff27d0	0.49835062
37	0x3de8b51c	0.11362669
38	0xbcf9309d	-0.030418688
39	0xbe0a559c	-0.1350922
40	0xbfb9949c	-1.4498477
41	0x3ec9c75f	0.3940992
42	0x3f14bfd0	0.5810518
43	0xbf100b8d	-0.56267625
44	0x3dce9921	0.10087801
45	0xbe412be3	-0.18864398
46	0x3dcb31f7	0.099216394
47	0xbf1b045d	-0.6055353
48	0x3f0bbb39	0.54582554
49	0x3dcc1a8f	0.09966003
50	0x3ea88e8a	0.3292125
51	0x3b700ab4	0.0036627473
52	0x3e7282ac	0.2368266
53	0x3e6868f3	0.22696285
54	0x3eb416eb	0.35173735
55	0x3e38b732	0.18038633
56	0xbde78d41	-0.11306239
57	0xbeacaeef	-0.33727214
58	0x3dace27b	0.08441635
59	0xbdba3d5b	-0.09093734
60	0xbec6467b	-0.38725647
61	0xbe03d053	-0.12872438
62	0xbebb20ec	-0.36548555
63	0xbda7f832	-0.082016364
64	0xbdb1624a	-0.08661325
65	0xbdcf540a	-0.10123451
66	0xbed3cc47	-0.4136679
67	0xbeebe898	-0.46075892
68	0xbeecf955	-0.46283975
69	0x3f3b188f	0.7308435
70	0x3d3535aa	0.04424063
71	0x3eb50c25	0.35360828
72	0x3ef3c279	0.47609308
73	0x3eaf7719	0.34270552
74	0xbd92ea04	-0.07173541
75	0x3ec94a46	0.3931448
76	0x3eb24010	0.348145
77	0x3f07c400	0.5303345
78	0x3e29c842	0.16580299
79	0xbea7d383	-0.32778558
80	0x3f013453	0.50470465
81	0x3ee9b0a1	0.4564257
82	0x3ee0e1f5	0.43922392
83	0xbee52ed2	-0.44762284
84	0xbe204807	-0.15652476
85	0xbed1e400	-0.40994263
86	0x3d41e5d5	0.047338326
87	0x3dbb8dba	0.091578916
88	0x3e07167a	0.13192168
89	0x3d1f5033	0.038894843
90	0xbd5770d3	-0.052597832
91	0xbeffb24c	-0.49940717
92	0xbf5c2cde	-0.8600596
93	0xbd9e8fc1	-0.07742263
94	0x3f411a70	0.75430965
95	0x3f176584	0.59139276
96	0x3d8dbdab	0.06920942
97	0xbc9bf487	-0.019037498
98	0x3dd868d7	0.105668716
99	0xbe082a0d	-0.13297291
100	0x3ee1e020	0.44116306
101	0x3da9d63f	0.08292817
102	0x3e3e2ea6	0.18572482
103	0xbe458639	-0.19289483
104	0xbecdc208	-0.40187097
105	0x3def857b	0.11695381
106	0xbe43e4ad	-0.19130202
107	0x3e403fb8	0.18774307
108	0x3e74b130	0.23895717
109	0xbfa325e2	-1.2745936
110	0x3df952a6	0.12173967
111	0x3e313e24	0.17308861
112	0x3ce19436	0.027536493
113	0x3be48e06	0.0069749383
114	0x3ef24668	0.4731934
115	0x3dddc0bb	0.10827776
116	0xbf0c0be9	-0.54705673
117	0xbba4e403	-0.005032064
118	0xbd5b5946	-0.053551935
119	0x3e4ea3af	0.20179628
120	0x3e463a4d	0.19358177
121	0xbd8c3f8a	-0.068480566
122	0xbe168254	-0.14698154
123	0x3f165bc0	0.5873375
124	0x3f5f2367	0.87163395
125	0xbb0d240e	-0.0021536383
126	0x3df62fd6	0.12020843
127	0x3ea08633	0.31352386
128	0xbe086486	-0.13319597
129	0xbea78b44	-0.3272344
130	0x3dc93533	0.098246
131	0xbe7df2f9	-0.24799718
132	0xbec5f0c1	-0.38660243
133	0x3d844351	0.06458152
134	0x3e0aa191	0.13538195
135	0x3d47d3ef	0.0487861
136	0xbe8e1b77	-0.2775533
137	0xbdbbea62	-0.09175564
138	0xbf1d07bf	-0.61339945
139	0x3ccec088	0.02523829
140	0xbea35426	-0.31900138
141	0xbe140bee	-0.14457676
142	0xbc6b62ce	-0.014366819
143	0x3e43e23b	0.19129269
144	0xbe86590b	-0.2623981
145	0xbe2b7ee1	-0.16747619
146	0xbe928f03	-0.28624734
147	0x3eccc79a	0.39996034
148	0xbdac7326	-0.084204
149	0xbf59ba80	-0.850502
150	0x3ec4b2ba	0.38417608
151	0x3ee913c1	0.45522884
152	0xbe06f037	-0.13177572
153	0x3d2c5e31	0.042082015
154	0x3edcfe1a	0.43162614
155	0x3e592e2d	0.21209021
156	0x3f0f57a3	0.559931
157	0xbdf6c82e	-0.120499
158	0x3e804676	0.25053757
159	0xbecd4318	-0.4009025
160	0xbdb32a84	-0.087483436
161	0xbcc58352	-0.02411047
162	0xbe9ac99a	-0.30231935
163	0x3f3347f4	0.70031667
164	0x3f215b73	0.63030165
165	0x3e2253f9	0.15852346
166	0xbe57609c	-0.21032947
167	0x3eba9ebd	0.36449233
168	0x3ea036d8	0.31291842
169	0x3cd9447d	0.026521916
170	0xbe16bd1f	-0.14720581
171	0xbdc41c22	-0.095756784
172	0x3e1a8633	0.15090255
173	0x3ecc9f03	0.39965066
174	0x3e9ae315	0.30251375
175	0xbe36bd65	-0.17845686
176	0xbe350231	-0.17676617
177	0x3c8eb6d2	0.01742116
178	0xbe835015	-0.25647035
179	0xbdab0621	-0.08350778
180	0xbe938cff	-0.2881851
181	0x3eb1f4a3	0.34756956
182	0xbeecd931	-0.46259454
183	0x3f4e0b15	0.8048566
184	0xbe0f261d	-0.13979383
185	0xbde4838e	-0.111579046
186	0x3e951998	0.2912109
187	0xbe17c8fc	-0.14822763
188	0x3e9d5f41	0.30736735
189	0x3f263b76	0.6493448
190	0x3ec60df5	0.38682523
191	0x3ebbf018	0.36706614
192	0x3e7bb47d	0.2458057
193	0xbdab979f	-0.08378529
194	0x3e47760d	0.19478627
195	0x3dabc2de	0.08386777
196	0x3e4210be	0.18951699
197	0xbe2d0397	-0.168959
198	0xbf54d69e	-0.8313998
199	0xbe1322dd	-0.14368768
200	0x3f396d65	0.7243255
201	0x3e63121b	0.22174875
202	0x3e4d0fc8	0.20025551
203	0x3eaa24bf	0.3323116
204	0x3f47a3e3	0.77984446
205	0x3f825bc9	1.0184261
206	0xbdafc9a1	-0.085833795
207	0xbddcdbdd	-0.10784123
208	0x3ec9df55	0.394282
209	0x3fad2373	1.3526443
210	0xbf32b286	-0.69803655
211	0x3e071a4a	0.13193622
212	0xbc5877e5	-0.013212179
213	0x3dd1ea1f	0.10249733
214	0x3effa2db	0.49928936
215	0x3ef5fdcc	0.48045194
216	0x3e1eae40	0.15496159
217	0x3e963938	0.2934053
218	0xbea44895	-0.32086626
219	0x3c62c8cf	0.013841822
220	0x3e6bb1d0	0.23017049
221	0xbf25f48c	-0.64826274
222	0x3edcfa64	0.43159783
223	0x3eb291cb	0.34876856
224	0xbed3d6e0	-0.41374874
225	0x3da769d6	0.081744835
226	0x3db982b0	0.0905813
227	0xbf9e1f67	-1.2353333
228	0x3e952412	0.29129082
229	0xbef6743b	-0.48135552
230	0x3e7196cb	0.23592679
231	0x3e5e847a	0.21730223
232	0xbf3604be	-0.71100986
233	0x3ebe9ffe	0.3723144
234	0x3f27f79b	0.6561219
235	0xbed8bc17	-0.42331
236	0xbf593504	-0.8484652
237	0xbe5f7dae	-0.21825287
238	0x3e57d33e	0.21076676
239	0xbf0ce36d	-0.55034524
240	0x3d16a957	0.03678259
241	0x3f98bef5	1.1933275
242	0x3e7c0c88	0.24614155
243	0xbce5d08e	-0.028053548
244	0x3d0c9b37	0.034327712
245	0x3ad47cf2	0.0016211553
246	0x3d8377d0	0.06419337
247	0xbd5608fd	-0.052254666
248	0xbf6df7c8	-0.9295621
249	0xbe61c314	-0.22047073
250	0xbdb1f379	-0.08689017
251	0xbf74c714	-0.9561627
252	0xbc582e72	-0.013194667
253	0xbc7be625	-0.015374695
254	0xbdc06a8d	-0.09395323
255	0x3d0528e2	0.032509692

6 f4 [24]
0	0x3e9e60d6	0.30933255
1	0x3e421338	0.18952644
2	0x3edc98e6	0.43085402
3	0x3e596e13	0.21233396
4	0x3e628b24	0.2212339
5	0x3f5155e8	0.8177171
6	0xbe91255f	-0.28348824
7	0x3e217558	0.1576742
8	0xbf9df4a2	-1.2340281
9	0x3f8a740d	1.0816666
10	0x3ef7ab51	0.48372892
11	0x3ea0a9d6	0.31379575
12	0x3ece10d7	0.40247223
13	0x3f37aa71	0.7174445
14	0x3f2f58e6	0.68495023
15	0x3f88f829	1.0700732
16	0x3f94e75a	1.1633103
17	0xbffe0124	-1.9844098
18	0x3f4b16c4	0.7933161
19	0x3ec859ca	0.39131004
20	0x3e8f6942	0.28009993
21	0x3e87a725	0.2649471
22	0x3f4ce7ef	0.800414
23	0x3e926eee	0.28600258

7 f4 [24, 1, 3, 3]
0	0x3e07590e	0.13217565
1	0x3ee3bb90	0.44479036
2	0x3dc681c6	0.09692721
3	0x3ee742a5	0.45168033
4	0x3f33b42f	0.70196813
5	0xbf36a3b2	-0.7134353
6	0x3ea123d1	0.31472638
7	0xbefa7044	-0.48913777
8	0xbf4e751e	-0.80647457
9	0x3e573fd6	0.21020445
10	0x3f0aded1	0.5424624
11	0x3ea6179c	0.32439888
12	0x3ec53f0e	0.3852467
13	0xbf76729d	-0.96268636
14	0xbf0adcd1	-0.5424319
15	0x3d8651b9	0.06558556
16	0x3e0c16c8	0.13680565
17	0xbe386843	-0.18008523
18	0xbc415cbb	-0.011801894
19	0xbfa023c9	-1.2510921
20	0xbf24f428	-0.6443505
21	0x3e0656d7	0.13119064
22	0xbed2a29e	-0.41139692
23	0x3ea4a5dc	0.3215779
24	0xbccfe869	-0.025379376
25	0xbe84452e	-0.2583403
26	0x3e397246	0.18109998
27	0xbe53be81	-0.2067814
28	0x3de34f09	0.11099059
29	0x3e97dd44	0.29661
30	0xbf345066	-0.7043518
31	0xbf385a37	-0.72012657
32	0xbdcfca21	-0.10145975
33	0xbce548b2	-0.027988765
34	0xbead4157	-0.33838913
35	0x3d17db80	0.037074566
36	0xbf2cec1b	-0.6754777
37	0xbf265ac6	-0.6498226
38	0xbdd7d584	-0.10538772
39	0x3f304906	0.68861425
40	0xbf122034	-0.5708039
41	0x3e7acc28	0.24491942
42	0x3f2477b0	0.6424513
43	0xbf0d961e	-0.55307186
44	0xbe557270	-0.20844436
45	0x3df3732f	0.11887204
46	0x3e15a3f1	0.1461332
47	0xbe23469e	-0.15944907
48	0xbf9ff703	-1.2497257
49	0xbf17568c	-0.59116435
50	0x3db5b69d	0.08872721
51	0x3f0b2797	0.54357284
52	0x3ee8e7ef	0.4548945
53	0x3ec2a803	0.38018808
54	0xbd628491	-0.055302206
55	0xbdeb8289	-0.11499507
56	0xba2d41ea	-0.0006609248
57	0xbe994f1f	-0.29943177
58	0xbeff6c2e	-0.49887222
59	0x3dcec3a7	0.100959115
60	0xbe3e9619	-0.18611945
61	0xbf5e5de4	-0.86862016
62	0xbeb64814	-0.35601866
63	0x3e3c9ec4	0.1841994
64	0x3e9e219a	0.3088501
65	0x3db8f8e0	0.09031844
66	0x3ea2a7d6	0.31768674
67	0x3fa2dbf3	1.2723373
68	0x3d56ee20	0.052473187
69	0x3e400d7c	0.18755144
70	0x3e6551b3	0.22394447
71	0xbda62a84	-0.08113578
72	0x3e1c9090	0.15289521
73	0x3ec700f8	0.38867927
74	0xbe8a038c	-0.2695583
75	0x3ecb83ed	0.3974909
76	0x3f0592fe	0.5217742
77	0x3f1b77b1	0.6072951
78	0x3ed637ad	0.41839352
79	0x3e2245e1	0.15846969
80	0x3f319aec	0.6937702
81	0xbc4a3a63	-0.012343022
82	0x3f7767e1	0.9664288
83	0x3ef328a1	0.47491935
84	0xbf3b818c	-0.7324455
85	0xbf3aa360	-0.7290554
86	0x3f1b2368	0.606009
87	0xbc899d4f	-0.016798643
88	0xbef51bd4	-0.47872794
89	0xbc97f6ff	-0.018550394
90	0xbee4a77f	-0.4465904
91	0xbed19fbb	-0.40942177
92	0xbc7b9c53	-0.015357095
93	0xbeed2b9d	-0.46322337
94	0x3f628a21	0.8849202
95	0x3f62bd1c	0.8856981
96	0xbe09ef30	-0.13470149
97	0x3d1de7b5	0.03855105
98	0x3df956d3	0.121747635
99	0xbea4b763	-0.32171163
100	0xbefb5e21	-0.49095252
101	0x3eab5791	0.33465245
102	0xbe939705	-0.28826156
103	0xbf421b07	-0.7582249
104	0x3f9db496	1.2320735
105	0x3c8c7886	0.017147314
106	0x3d7b3c2d	0.061336685
107	0x3e53b9ef	0.20676397
108	0xbe5d0eae	-0.21587631
109	0xbe3bb813	-0.18331937
110	0xbe231b04	-0.15928274
111	0xbe5e5531	-0.21712185
112	0xbf71d52e	-0.9446591
113	0xbef6739b	-0.48135075
114	0x3ed1f4c9	0.4100707
115	0x3da19b81	0.07890988
116	0x3da2ca2e	0.07948719
117	0xbd086d0d	-0.033307124
118	0x3e17c5d6	0.14821562
119	0xbe0dee8c	-0.1386053
120	0x3eb68065	0.35644832
121	0x3ee1bb4a	0.44088203
122	0x3e388346	0.18018827
123	0x3d03a8ad	0.032143284
124	0x3d98f881	0.07469273
125	0xbd9c19cc	-0.07622108
126	0xbca9e63b	-0.020739665
127	0x3e6f1f22	0.2335172
128	0x3e947f77	0.29003498
129	0xbf1608c1	-0.5860711
130	0x3f2c4c63	0.67304057
131	0x3f0c97fa	0.549194
132	0xbdbf8040	-0.093506336
133	0xbf2647c6	-0.6495327
134	0xbe57aac2	-0.21061233
135	0x3d461b76	0.048366033
136	0x3e0d19d5	0.13779385
137	0xbda407bf	-0.0800929
138	0xbd372a23	-0.04471792
139	0xbecf5cef	-0.4050059
140	0xbddcedb7	-0.10787528
141	0xbcc5298e	-0.024067666
142	0xbfbec9eb	-1.490537
143	0x3e941554	0.28922522
144	0x3d8ffc1a	0.070305064
145	0x3e226f64	0.15862805
146	0xbd03e9f1	-0.032205526
147	0x3e5f12fe	0.21784589
148	0xbf7ae71b	-0.9800889
149	0x3dde1ac2	0.108449474
150	0xbcb3fada	-0.021970201
151	0x3f3425ec	0.70370364
152	0x3ea37082	0.31921774
153	0x3f59f05a	0.8513237
154	0xbeeb1a54	-0.45918524
155	0x3d6f280f	0.058387812
156	0x3ee5b5d9	0.448653
157	0xbe494811	-0.19656397
158	0xbf1474d5	-0.5799077
159	0x3f03adcf	0.51437086
160	0x3e5f7398	0.2182144
161	0xbe9fc31f	-0.31203553
162	0xbc98a842	-0.01863492
163	0xbf327a5d	-0.6971796
164	0x3e1a6011	0.15075709
165	0x3f807146	1.0034568
166	0xbea477b7	-0.32122585
167	0xbe8f42cc	-0.2798065
168	0x3d2263e2	0.039646037
169	0x3eb39f45	0.3508245
170	0xbe25dff0	-0.16198707
171	0x3ec16254	0.3777033
172	0x3c45a5d4	0.012063462
173	0xbe34843f	-0.17628573
174	0x3f5e0ec6	0.8674129
175	0xbf8cccba	-1.0999978
176	0xbe08562c	-0.13314122
177	0x3f023eb9	0.5087696
178	0xbe8d014b	-0.2754005
179	0xbde1d9c8	-0.110278666
180	0xbd778056	-0.060425125
181	0xbd05583d	-0.032554854
182	0xbe275f92	-0.16345051
183	0x3e7a2d77	0.24431406
184	0x3f734d34	0.9503968
185	0x3f50eef2	0.816146
186	0x3e1b4e5d	0.15166612
187	0x3efcdfa1	0.49389365
188	0x3e827832	0.25482327
189	0x3e97e089	0.29663494
190	0x3f11fa32	0.5702239
191	0x3e640e2c	0.22271031
192	0x3e8caa5c	0.27473724
193	0x3f44945e	0.7678889
194	0x3f23539f	0.6379947
195	0x3e4f35c8	0.2023536
196	0x3dd80dfe	0.10549544
197	0x3de155db	0.11002704
198	0xbeafb47e	-0.34317392
199	0x3d1665a0	0.03671801
200	0x3d91b89d	0.0711529
201	0xbf53a5ba	-0.82674754
202	0x3f9bba3c	1.2166209
203	0xbedd44f2	-0.43216664
204	0x3ecc263c	0.3987292
205	0xbb1764f0	-0.0023100935
206	0xbdcbd7ff	-0.09953307
207	0x3e9d852b	0.30765662
208	0xbdff1c90	-0.1245662
209	0xbee4640f	-0.4460759
210	0x3ec88e8c	0.39171255
211	0x3fad7b72	1.3553298
212	0xbe3283ff	-0.17433165
213	0x3e401920	0.18759584
214	0x3e50b24c	0.20380515
215	0x3dd1093c	0.102068394

8 f4 [24]
0	0x00000000	0.0
1	0x00000000	0.0
2	0x00000000	0.0
3	0x00000000	0.0
4	0x00000000	0.0
5	0x00000000	0.0
6	0x00000000	0.0
7	0x00000000	0.0
8	0x00000000	0.0
9	0x00000000	0.0
10	0x00000000	0.0
11	0x00000000	0.0
12	0x00000000	0.0
13	0x00000000	0.0
14	0x00000000	0.0
15	0x00000000	0.0
16	0x00000000	0.0
17	0x00000000	0.0
18	0x00000000	0.0
19	0x00000000	0.0
20	0x00000000	0.0
21	0x00000000	0.0
22	0x00000000	0.0
23	0x00000000	0.0

9 f4 [28, 24, 1, 1]
0	0xbe279b5c	-0.16367859
1	0x3dfcf1bb	0.12350794
2	0xbe355db6	-0.17711529
3	0x3e8ea271	0.27858308
4	0x3d5cf71b	0.053946596
5	0x3e32d55e	0.17464206
6	0x3ea924f9	0.3303602
7	0x3c4170dd	0.011806694
8	0xbf095261	-0.53641325
9	0x3eb60b49	0.35555485
10	0xbe154844	-0.14578348
11	0xbd9353fa	-0.07193752
12	0x3cb3ce28	0.021948889
13	0xbea2e01d	-0.3181161
14	0xbeb0f573	-0.34562263
15	0xbc1cd05f	-0.009571164
16	0x3e0b7ddd	0.13622232
17	0x3d9fd6e6	0.078046605
18	0x3b57e95d	0.0032945492
19	0x3dd112a5	0.10208634
20	0xbed9d374	-0.42544138
21	0x3e5da234	0.21643907
22	0x3d943466	0.07236557
23	0x3ea667cd	0.3250107
24	0x3e20229f	0.15638207
25	0x3e80d4be	0.2516231
26	0x3d804607	0.06263357
27	0xbe6cca08	-0.23123944
28	0xbda22fc4	-0.07919267
29	0xbe84658b	-0.2585872
30	0xbe4e5077	-0.20147882
31	0x3da580e1	0.08081222
32	0xbe478003	-0.19482426
33	0xbddc2316	-0.107488796
34	0x3d4828b3	0.04886694
35	0xbda25b54	-0.07927576
36	0xbe325d91	-0.17418505
37	0xbdd40881	-0.103531845
38	0xbe277cd4	-0.16356212
39	0x3d591446	0.05299785
40	0x3e9de160	0.3083601
41	0xbc5381f5	-0.012909402
42	0xbe1051bf	-0.14093684
43	0xbe88bc6b	-0.26706252
44	0x3a87f00a	0.001037122
45	0x3ce6e97f	0.028187511
46	0xbcfcfd6f	-0.030882565
47	0xbd1ca1a9	-0.03824011
48	0x3ca7af26	0.02046926
49	0x3e818431	0.25296167
50	0x3efc2ed6	0.49254483
51	0x3ca5c352	0.020234738
52	0xbd60fbb5	-0.054927547
53	0xbdccaa72	-0.09993447
54	0xbd226b6e	-0.039653234
55	0xbd8ee978	-0.069781244
56	0xbdbc1147	-0.09182983
57	0x3d2f93a2	0.042865403
58	0xbd23385f	-0.03984868
59	0xbd12dc02	-0.035854347
60	0x3d986f59	0.07443113
61	0xbd5393b7	-0.051654544
62	0x3c589ab3	0.013220477
63	0x3d359329	0.044329796
64	0x3d00d6c3	0.031454813
65	0x3d5528ca	0.052040853
66	0x3d42f3ac	0.047595665
67	0xbc7ef83f	-0.015562116
68	0x3dab2a9c	0.083577365
69	0x3d9a6e94	0.07540622
70	0xbc5c021c	-0.013428237
71	0xbe8b9837	-0.27264568
72	0xbd67ca2e	-0.056589298
73	0xbd6bfbbc	-0.05761312
74	0xbd7b7ffe	-0.06140136
75	0x3eff5975	0.49872938
76	0xba6338e4	-0.000866784
77	0x3d1eede3	0.038801085
78	0x3be0cceb	0.0068603656
79	0xbe71de2b	-0.23619907
80	0xbe9de5ee	-0.30839485
81	0xbc9685ed	-0.018374408
82	0x3d8f2c50	0.06990874
83	0x3ef73e9a	0.4828995
84	0x3e1c01a9	0.15235008
85	0x3e539f41	0.2066622
86	0xbd18181b	-0.037132364
87	0x3d0fa6a9	0.03507105
88	0x3d3d93e8	0.046283633
89	0xbe2ca39b	-0.16859286
90	0x3d30d5ae	0.04317253
91	0x3e938886	0.28815097
92	0x3e262c30	0.16227794
93	0xbf24931c	-0.6428697
94	0x3e8c5d29	0.27414826
95	0x3d385f40	0.045012712
96	0xbea67d0a	-0.32517272
97	0xbda2e758	-0.079542816
98	0xbd6f18ec	-0.058373377
99	0xbce4abb2	-0.027913902
100	0x3edafd4d	0.42771378
101	0xbdda768e	-0.10667144
102	0x3c69619c	0.014244463
103	0xbd408b52	-0.047007866
104	0xbcd773ca	-0.02630033
105	0x3df6d55e	0.12052415
106	0xbd7dc71d	-0.061957467
107	0x3c146d73	0.009059298
108	0xbd80ce0b	-0.062892996
109	0xbd28bd5a	-0.041196205
110	0xbd654a58	-0.055979103
111	0x3bfda7e3	0.007740961
112	0x3cdfcdf7	0.027319891
113	0x3c5c3c37	0.013442091
114	0xbc9718e0	-0.018444479
115	0xbdd5f177	-0.104464464
116	0x3c831067	0.015999032
117	0xbbede58e	-0.007260031
118	0x3c9112dc	0.017709188
119	0x3cf2f818	0.029659316
120	0x3e97f8dc	0.29682052
121	0xbe9581a5	-0.29200473
122	0xbd7c0669	-0.06152955
123	0x3cba857c	0.022768728
124	0xbd223412	-0.03960044
125	0xbe9365e6	-0.2878868
126	0xbd4966f4	-0.04917045
127	0xbb580c84	-0.0032966444
128	0xbea9ff91	-0.33202794
129	0xbf5a581e	-0.85290706
130	0x3df791a3	0.12088325
131	0xbe299d02	-0.165638
132	0x3e3240a0	0.17407465
133	0x3d658857	0.056038227
134	0x3e7efb33	0.24900512
135	0x3e87d2e2	0.26528078
136	0xbc8b050f	-0.016970186
137	0xbc8d10a8	-0.017219856
138	0xbe20f8d4	-0.1571992
139	0xbc632365	-0.013863419
140	0xbdf8aaa2	-0.121419206
141	0xbe3fc5b9	-0.18727769
142	0xbe3fa8a8	-0.18716681
143	0x3d0c399c	0.034234628
144	0x3ee32496	0.4436385
145	0xbdf7a40c	-0.12091836
146	0xbd1e0237	-0.03857633
147	0xbd3c7ea4	-0.04601921
148	0x3db852ff	0.09000205
149	0xbe089167	-0.13336717
150	0x3e809404	0.25112927
151	0xbd1d35b3	-0.03838129
152	0xbe2b4902	-0.16727069
153	0x3dc796f0	0.09745586
154	0x3dc73b0e	0.09728061
155	0x3ea5d93a	0.32392293
156	0xbd6539ca	-0.055963315
157	0xbd70a6f4	-0.05875297
158	0x3c958589	0.018252151
159	0x3e2a21af	0.16614412
160	0x3d62a349	0.055331502
161	0xbc456d65	-0.0120500075
162	0x3b985d62	0.004649804
163	0xbe3f5681	-0.18685342
164	0xbd1bb3c5	-0.03801324
165	0xbe72e056	-0.2371839
166	0x3db43c44	0.08800557
167	0xbb9cef5f	-0.0047892774
168	0xbe6f3520	-0.2336011
169	0x3e174162	0.14771035
170	0xbc57968c	-0.013158452
171	0x3c45268d	0.012033117
172	0x3d46d9d5	0.048547585
173	0x3ab24ca6	0.0013603165
174	0xbdce1a50	-0.100636125
175	0xbeade3b1	-0.33962777
176	0xbbc14ad2	-0.005898812
177	0xbe3fbac0	-0.18723583
178	0xbc0f9b92	-0.008765118
179	0x3e0808b2	0.13284567
180	0x3d81e3fc	0.06342313
181	0x3d8e35f8	0.069438875
182	0x3e1eb8bd	0.1550016
183	0x3d20f066	0.03929176
184	0x3d0e2c8a	0.034710445
185	0xbe2432a2	-0.1603494
186	0xbe8efaf2	-0.2792583
187	0xbeac378d	-0.33636132
188	0xbd851670	-0.0649842
189	0x3e16b66e	0.14718029
190	0x3cbe9bf6	0.023267727
191	0x3d6abdac	0.05730979
192	0xbdba2f7e	-0.0909109
193	0xbb8fb425	-0.0043854886
194	0xbe148d46	-0.14507017
195	0x3e37ba63	0.17942195
196	0xbdeb9de7	-0.11504727
197	0xbd0c579f	-0.03426325
198	0xbdb307b7	-0.08741706
199	0x3c54925c	0.012974348
200	0xbd818096	-0.06323354
201	0x3e77b8ff	0.24191664
202	0x3d3a9918	0.045556158
203	0x3d19be4d	0.037535
204	0xbe1a4a9a	-0.1506752
205	0x3de54034	0.111938864
206	0xbdcf20ec	-0.10113701
207	0x3c10a6a9	0.008828797
208	0xbd034f24	-0.032057896
209	0x3e6d6379	0.23182477
210	0xbd44c1c1	-0.04803634
211	0xbd661456	-0.056171738
212	0xbde7550a	-0.11295517
213	0x3b2d8db3	0.0026482164
214	0x3d09fb12	0.033686705
215	0x3e84ab0a	0.25911742
216	0x3d927fee	0.07153307
217	0x3e73d9c4	0.2381354
218	0x3e8ee5d2	0.27909714
219	0x3e299a1e	0.16562697
220	0xbe32751b	-0.17427485
221	0x3f03f517	0.5154585
222	0x3ea0bff6	0.31396455
223	0xbf2b5d7a	-0.6693951
224	0xbcfc2009	-0.030776994
225	0xbe2155d4	-0.15755397
226	0xbe2a6501	-0.16640092
227	0xbe924579	-0.28568628
228	0xbdcbc517	-0.09949701
229	0xbc9595b4	-0.01825986
230	0x3d08201b	0.033233743
231	0xbd52b3ca	-0.05144099
232	0xbf28368f	-0.6570825
233	0x3e40a9a9	0.1881472
234	0x3efa23c8	0.48855424
235	0x3e323e58	0.17406595
236	0x3e2dc712	0.1697047
237	0x3dcb40ed	0.09924493
238	0x3db564f2	0.088571444
239	0x3e92e948	0.28693604
240	0x3e4bfa49	0.19919695
241	0x3de972ba	0.113988355
242	0x3d8372e2	0.064183965
243	0x3f1c1c77	0.60980934
244	0xbdebd695	-0.11515538
245	0xbce203c9	-0.027589696
246	0xbdd20356	-0.102545425
247	0xbd90f35a	-0.070776656
248	0xbf48982f	-0.78357214
249	0x3cb35327	0.021890236
250	0x3fad0664	1.3517575
251	0xbdccc148	-0.09997803
252	0x3ecba62b	0.39775214
253	0x3dfe6b09	0.12422759
254	0x3fca28ea	1.5793736
255	0xbdc1183c	-0.094284505

10 f4 [28]
0	0x3e43543d	0.19075103
1	0x3e0588b2	0.13040426
2	0x3deba826	0.11506681
3	0x3f35bfe2	0.70995915
4	0xbe335b6c	-0.17515343
5	0xbd2c3c7b	-0.042049866
6	0x3e2a03f4	0.1660307
7	0x3e0fdc7b	0.1404895
8	0xbe9a4cf6	-0.30136842
9	0xbd13cec7	-0.03608587
10	0xbf87f0bb	-1.062034
11	0xbf28314f	-0.6570024
12	0xbe16b9ec	-0.14719361
13	0x3f892839	1.07154
14	0xbf2840b8	-0.6572375
15	0x3e30f475	0.17280753
16	0x3e42676a	0.18984762
17	0xbf0590a7	-0.52173847
18	0x3d20c0f0	0.0392465
19	0x3f7e0d31	0.9923888
20	0x3e2ced85	0.16887482
21	0xbdbadce1	-0.091241606
22	0xbee46778	-0.4461019
23	0xbc3ff2c4	-0.011715595
24	0xbdd3f4bc	-0.10349414
25	0x3ddefbc5	0.10887865
26	0x3c75a179	0.014992111
27	0xbdd08786	-0.10182099

11 f4 [28, 1, 3, 3]
0	0xbe8a05a0	-0.26957417
1	0xbea4292e	-0.32062668
2	0xbd3fda2a	-0.046838917
3	0xbeefd556	-0.4684245
4	0xbf131c02	-0.5746461
5	0xbdf88ffb	-0.12136837
6	0xbeab09fa	-0.3340605
7	0xbeaf8276	-0.3427922
8	0xbde0e41b	-0.10981008
9	0x3e52e3f1	0.20594765
10	0x3ee50b0f	0.44735
11	0x3e909d3b	0.28244957
12	0x3e6378d5	0.22214063
13	0x3edd93c5	0.43276802
14	0x3e9ac85c	0.30230987
15	0x3d4e4419	0.05035791
16	0x3d981f14	0.07427803
17	0x3d8cd57e	0.06876658
18	0xbeec32ed	-0.46132603
19	0xbf62d992	-0.88613236
20	0xbf0c20dc	-0.5473764
21	0xbf702f2c	-0.9382198
22	0xbfc7ba98	-1.5603819
23	0xbf3b0eb2	-0.730693
24	0xbf08d96a	-0.5345675
25	0xbf311944	-0.6917918
26	0xbe8ed295	-0.27895036
27	0xbf10848c	-0.5645225
28	0xbf2b9474	-0.67023396
29	0xbe377a3c	-0.17917722
30	0xbed47810	-0.4149785
31	0xbf125f94	-0.5717709
32	0xbe38a118	-0.18030202
33	0x3d4d944e	0.050190262
34	0x3cfd6318	0.03093104
35	0xbc597bfc	-0.013274189
36	0xbea1f1f9	-0.31629923
37	0xbf637d3c	-0.8886297
38	0xbef96907	-0.48712942
39	0xbf547cb1	-0.83002764
40	0xbf8d4930	-1.103796
41	0xbf1f24e0	-0.6216564
42	0xbea96b13	-0.33089504
43	0xbf1224d9	-0.57087475
44	0xbe8516fd	-0.259941
45	0x3e8c9335	0.2745606
46	0x3ec6fe67	0.3886597
47	0x3e916654	0.28398383
48	0x3f132248	0.57474184
49	0x3f50b705	0.81529266
50	0x3eebc2e9	0.46047142
51	0x3eac604d	0.33667222
52	0x3ee20973	0.44147834
53	0x3e378204	0.17920691
54	0x3e4e72ed	0.20161028
55	0x3f162ed0	0.5866518
56	0x3ee2cdec	0.4429773
57	0x3f10c689	0.5655294
58	0x3f84b5f0	1.0368023
59	0x3f0e658f	0.55623716
60	0x3ed88096	0.42285603
61	0x3f12362d	0.57113916
62	0x3e6d1c65	0.23155363
63	0x3e8e7fc0	0.2783184
64	0x3f16ba7a	0.5887829
65	0x3f0301b1	0.51174456
66	0x3ecd1ec9	0.4006255
67	0x3f5f3530	0.8719053
68	0x3ef533b6	0.47891015
69	0x3e569775	0.20956214
70	0x3ee32d62	0.44370562
71	0x3e2e152c	0.17000264
72	0xbe97bb92	-0.29635292
73	0xbf3858c5	-0.7201045
74	0xbf091a2b	-0.53555554
75	0xbf236c37	-0.63837
76	0xbf833983	-1.0251926
77	0xbf4e4cf9	-0.805862
78	0xbe5fc8c8	-0.21853936
79	0xbef1eaf5	-0.4724957
80	0xbe93e63c	-0.28886592
81	0xbe511481	-0.20417978
82	0xbe5dcc87	-0.21660052
83	0xbc84c7f0	-0.016208619
84	0xbedd6369	-0.43239906
85	0xbf07cbdb	-0.53045434
86	0xbe2ec683	-0.17067914
87	0xbe6c345f	-0.23066853
88	0xbea8e9a8	-0.32990766
89	0xbe111627	-0.14168607
90	0xbd01a5fe	-0.031652443
91	0x3cba19f7	0.02271746
92	0xbe7dd9ff	-0.2479019
93	0x3ca311a8	0.01990588
94	0x3d858c69	0.06520922
95	0xbea4005c	-0.32031524
96	0xbe52ae76	-0.20574364
97	0xbe9c87ee	-0.30572456
98	0xbe0b5f32	-0.13610533
99	0xbe8e2ed2	-0.27770096
100	0xbecb8f1a	-0.39757615
101	0xbe4ef56b	-0.20210807
102	0xbeefd4e5	-0.46842113
103	0xbf377646	-0.71664846
104	0xbeb7e330	-0.35915518
105	0xbe67b9a1	-0.22629406
106	0xbeb3a954	-0.35090125
107	0xbe339c8d	-0.17540188
108	0xbe73d04f	-0.23809932
109	0xbf37454f	-0.7159013
110	0xbeff381b	-0.49847493
111	0xbeedd648	-0.46452546
112	0xbf69df7d	-0.9135664
113	0xbf10d6ab	-0.5657756
114	0xbe4784c6	-0.19484243
115	0xbee8757b	-0.4540213
116	0xbe71f6e2	-0.23629335
117	0xbf1ef6cc	-0.6209533
118	0xbf22a575	-0.6353372
119	0xbd9c9319	-0.07645244
120	0xbf117cfa	-0.56831324
121	0xbf20aa4d	-0.6275986
122	0xbddca194	-0.10773006
123	0xbe13fc0f	-0.14451621
124	0xbdc2b474	-0.09507075
125	0xba88b1ba	-0.0010428943
126	0x3eb77080	0.35828018
127	0x3ed039ed	0.40669194
128	0x3d9f9247	0.07791572
129	0x3eeb1383	0.45913324
130	0x3f150ccb	0.58222646
131	0x3e42ee2b	0.19036166
132	0x3d6a3fa6	0.057189606
133	0x3e812251	0.25221494
134	0x3e4b1352	0.19831589
135	0x3f017de1	0.505827
136	0x3f4d3140	0.80153275
137	0x3ef1d49b	0.47232518
138	0x3f432cc6	0.76240194
139	0x3fa79e2a	1.3095143
140	0x3f50c36d	0.81548196
141	0x3eb7e5a5	0.35917392
142	0x3f33bf2a	0.7021357
143	0x3ee7562a	0.45182925
144	0x3f079b95	0.52971774
145	0x3f329702	0.6976167
146	0x3da43d4a	0.080195025
147	0x3e8d3c41	0.27585033
148	0x3dded802	0.10881044
149	0xbe8e3f03	-0.2778245
150	0xbe535ffb	-0.20642082
151	0xbeca0e83	-0.39464197
152	0xbed21bc8	-0.4103682
153	0xbeab1e7a	-0.3342169
154	0xbdf95994	-0.12175289
155	0x3e666b80	0.22501945
156	0xbe831fca	-0.2561019
157	0x3eb58008	0.35449243
158	0x3f3d1cf8	0.7387233
159	0x3d784ca7	0.060619976
160	0x3f056a2c	0.5211513
161	0x3f0d452d	0.5518368
162	0x3ec4bf58	0.38427234
163	0x3ea1feb6	0.31639642
164	0xbd7ceeae	-0.06175106
165	0x3ebca8fd	0.36847678
166	0x3e920d7e	0.2852592
167	0xbdae162a	-0.08500321
168	0x3971aafa	0.00023047245
169	0xbd1570e1	-0.036484603
170	0xbd310c84	-0.043224826
171	0xbe0f3561	-0.13985206
172	0xbf097060	-0.53687096
173	0xbe4c24a0	-0.19935846
174	0xbe91e57e	-0.284954
175	0xbf11c134	-0.5693543
176	0xbe418109	-0.1889688
177	0xbd92f60a	-0.071758345
178	0xbd828018	-0.06372088
179	0xbd924001	-0.07141114
180	0x3ebceabf	0.36897847
181	0x3ec83245	0.39100853
182	0x3e70a1b3	0.23499183
183	0x3f1c2c75	0.61005336
184	0x3f5684e3	0.8379652
185	0x3ed3c820	0.4136362
186	0x3eaa0145	0.33204094
187	0x3f0c69b5	0.54848796
188	0x3e8248f9	0.254463
189	0x3eb38a8d	0.35066643
190	0x3ef0f95b	0.47065243
191	0x3e1bcae2	0.15214112
192	0x3f1f94de	0.6233653
193	0x3f69dadf	0.91349596
194	0x3ed2544d	0.4107994
195	0x3eab597e	0.33466715
196	0x3f0b89c3	0.5450708
197	0x3e946424	0.2898265
198	0x3e8e768f	0.27824828
199	0x3eccfedd	0.40038195
200	0x3e405ed3	0.18786173
201	0x3ec0fbb4	0.37692034
202	0x3f3fd989	0.7494131
203	0x3f160bda	0.58611834
204	0x3eb71303	0.35756692
205	0x3f26f631	0.6521941
206	0x3f23b2c0	0.63944626
207	0x3f23afce	0.6394013
208	0x3f0ec2cc	0.55765986
209	0x3e0f2fa1	0.13983013
210	0x3f0f0c46	0.558781
211	0x3eedb79c	0.46429145
212	0x3d91e642	0.07123996
213	0x3d998d94	0.07497707
214	0x3dcd9cff	0.1003971
215	0xbe179d99	-0.14806212
216	0xbefe121f	-0.496232
217	0xbf5560df	-0.8335094
218	0xbefad84d	-0.4899315
219	0xbf3fe3b5	-0.7495683
220	0xbfb6def7	-1.4286793
221	0xbf6a3b01	-0.9149628
222	0xbedca662	-0.4309569
223	0xbf3d4438	-0.7393222
224	0xbeb534a7	-0.35391733
225	0xbf2e437d	-0.6807173
226	0xbfb2d4d0	-1.3971195
227	0xbf842ddc	-1.0326495
228	0xbf406044	-0.7514689
229	0xbfb4f38c	-1.4136825
230	0xbf8416cc	-1.0319457
231	0xbe09b0c8	-0.13446343
232	0xbeb7f982	-0.35932547
233	0xbe7a83f5	-0.244644
234	0x3ec6ffb1	0.38866952
235	0x3f682544	0.9068186
236	0x3f49dc06	0.78851354
237	0x3f34e0d4	0.7065556
238	0x3fbc0dbb	1.469169
239	0x3f678dc2	0.9045068
240	0x3f0b97c4	0.5452845
241	0x3f2e87c4	0.6817591
242	0x3e7fe7e6	0.24990806
243	0xbf07dc59	-0.530706
244	0xbea6318f	-0.32459685
245	0xbeac3ef0	-0.33641768
246	0xbf80b91d	-1.0056492
247	0xbf09bfdd	-0.53808385
248	0x3df060a0	0.1173718
249	0xbf064bc4	-0.5245936
250	0xbed11a72	-0.4084049
251	0x3eb54d94	0.3541075

12 f4 [28]
0	0x00000000	0.0
1	0x00000000	0.0
2	0x00000000	0.0
3	0x00000000	0.0
4	0x00000000	0.0
5	0x00000000	0.0
6	0x00000000	0.0
7	0x00000000	0.0
8	0x00000000	0.0
9	0x00000000	0.0
10	0x00000000	0.0
11	0x00000000	0.0
12	0x00000000	0.0
13	0x00000000	0.0
14	0x00000000	0.0
15	0x00000000	0.0
16	0x00000000	0.0
17	0x00000000	0.0
18	0x00000000	0.0
19	0x00000000	0.0
20	0x00000000	0.0
21	0x00000000	0.0
22	0x00000000	0.0
23	0x00000000	0.0
24	0x00000000	0.0
25	0x00000000	0.0
26	0x00000000	0.0
27	0x00000000	0.0

13 f4 [32, 28, 1, 1]
0	0x3df2db93	0.11858287
1	0x3e3a0576	0.18166146
2	0x3c42e848	0.0118962005
3	0x3cdc509b	0.026893904
4	0xbc936a01	-0.017994883
5	0xbe446527	-0.19179212
6	0x3c6593c5	0.014012282
7	0xbe5db652	-0.21651581
8	0x3f162b93	0.5866024
9	0x3d3096bf	0.043112513
10	0x3d5fe377	0.054660287
11	0xbca3f6db	-0.02001517
12	0xbd141266	-0.03615036
13	0x3d7d08b9	0.061775897
14	0xbe035baa	-0.12827936
15	0x3e8c3fc1	0.2739239
16	0x3da20992	0.07911982
17	0x3e00a526	0.12562999
18	0x3d8dcac0	0.06923437
19	0x3d9be782	0.07612516
20	0x3d86e4a0	0.065865755
21	0x3e92f8a9	0.28705338
22	0xbd9e901e	-0.07742332
23	0x3e8a26ff	0.26982877
24	0x3e36e3e6	0.17860374
25	0xbdfa3618	-0.12217349
26	0x3e1161b1	0.14197423
27	0xbd5cfa4e	-0.053949647
28	0xbe88439d	-0.26614085
29	0xbe6907c4	-0.22756869
30	0x3e8e8436	0.27835244
31	0xbd7dc6dc	-0.061957225
32	0x3e05a797	0.13052212
33	0x3c6e9b48	0.014563389
34	0xbe7f1d09	-0.2491342
35	0xbca722a4	-0.02040226
36	0x3d91bc0f	0.071159475
37	0xbc0a3f0d	-0.008437884
38	0xbba64aad	-0.00507482
39	0x3eb5d3f9	0.35513285
40	0xbe7f56e0	-0.24935484
41	0xbd987f15	-0.07446114
42	0x3e1c5119	0.15265311
43	0xbdf99d3a	-0.12188192
44	0xbe1503a9	-0.14552177
45	0x3e130f3a	0.14361277
46	0x3d58fcca	0.052975453
47	0x3c84a309	0.016191022
48	0x3d0f40aa	0.034973778
49	0x3e35071c	0.17678493
50	0x3e40e90b	0.18838899
51	0xbdde17ab	-0.10844358
52	0x3e25d7cc	0.16195601
53	0x3dd65671	0.10465706
54	0x3d6922a3	0.056917798
55	0xbdccc3fc	-0.099983186
56	0x3e87b4b6	0.2650506
57	0xbe12927a	-0.14313689
58	0xbe2cf7ae	-0.16891357
59	0x3d7ca4f7	0.06168076
60	0xbe8b1cb2	-0.2717033
61	0x3ebab99e	0.3646974
62	0xbe7b2d32	-0.2452896
63	0xbe1c9013	-0.15289335
64	0x3d9849f7	0.07435983
65	0x3f12a8ec	0.57289004
66	0x3e437a30	0.1908958
67	0x3d0583c6	0.032596372
68	0x3ef5a02e	0.4797377
69	0x3e6d718a	0.23187843
70	0xbe6681d0	-0.22510457
71	0xbd6957c3	-0.05696846
72	0x3e9e41e4	0.30909646
73	0x3b565023	0.0032701574
74	0x3d8b9f0b	0.068174444
75	0x3d525d5a	0.05135856
76	0x3ed3d697	0.41374657
77	0xbd35ab1c	-0.044352636
78	0x3e40adfb	0.18816368
79	0xbeab260b	-0.33427462
80	0x3d3c1583	0.045918953
81	0x3d843fb8	0.06457466
82	0x3bc6dabb	0.006068555
83	0xbd2b748b	-0.04185919
84	0x3e18f346	0.14936551
85	0xbe4c1339	-0.19929208
86	0x3ce74d97	0.02823524
87	0x3f32fd15	0.6991742
88	0xbe09ad8c	-0.13445109
89	0xbe1e30f9	-0.15448369
90	0x3d98e977	0.07466405
91	0x3c19f102	0.00939584
92	0x3de3acd7	0.11116951
93	0x3cf056fe	0.029338356
94	0xbe2daf9d	-0.16961522
95	0x3ad74092	0.0016422442
96	0xbe323652	-0.17403534
97	0x3e8f09e0	0.27937222
98	0xbd17c402	-0.037052162
99	0x3dd8af16	0.1058027
100	0xbd5f91e4	-0.05458249
101	0x3df8477a	0.12123008
102	0x3d8d4fb5	0.068999685
103	0xbccff204	-0.025383957
104	0x3dcda3f3	0.100410365
105	0x3ecdc55e	0.40189642
106	0x3d81d978	0.06340307
107	0x3ea1dd31	0.31614068
108	0xbebaffa5	-0.36523166
109	0x3c6d0ae3	0.014467928
110	0x3d8becf2	0.06832303
111	0xbdc79880	-0.09745884
112	0x3c5ceb15	0.013483782
113	0xbd00b276	-0.031420194
114	0xbe537bd0	-0.206527
115	0xbe017211	-0.12641169
116	0xbe7f2a6c	-0.24918526
117	0x3e8c285b	0.2737454
118	0xbd5123bd	-0.051059473
119	0xbef12f73	-0.47106513
120	0x3c24d347	0.010060138
121	0x3b00b032	0.001963627
122	0xbe1cc52e	-0.15309593
123	0xbefb5a3b	-0.49092278
124	0x3e2cbeb8	0.16869628
125	0x3d0e0807	0.034675624
126	0xbc5cb3fd	-0.013470647
127	0x3ee3982a	0.4445203
128	0x3e84ec55	0.25961557
129	0xbe207091	-0.1566794
130	0xbdc5697f	-0.096392624
131	0x3cf5f1de	0.030022558
132	0xbeee96b4	-0.46599352
133	0xbedeeb52	-0.4353891
134	0xbcb24d6f	-0.021765439
135	0xbd179bda	-0.037013866
136	0x3e88fc13	0.26754817
137	0x3ee1bd8c	0.44089925
138	0xbf32ecc9	-0.69892555
139	0xbee5162c	-0.44743478
140	0x3cfed28a	0.031106252
141	0xbe85ebc1	-0.26156428
142	0xbed79256	-0.42103833
143	0xbeaa8015	-0.33300844
144	0xbe390d6f	-0.18071531
145	0x3cac6bda	0.021047521
146	0x3e132f2e	0.14373466
147	0xbd180359	-0.037112568
148	0x3c81981e	0.015819605
149	0xbd389f68	-0.045073897
150	0x3d7c7559	0.06163535
151	0xbd95e47a	-0.07318969
152	0x3e1943de	0.14967296
153	0x3db9e75a	0.0907733
154	0xbeb5eaf0	-0.35530806
155	0x3e0c35aa	0.13692346
156	0xbd287c67	-0.041134264
157	0x3e8a234e	0.2698006
158	0xbd2864ac	-0.041111633
159	0x3e081f09	0.13293089
160	0xbe8b798d	-0.27241173
161	0xbd71c9b5	-0.059030253
162	0x3dc6b3b2	0.09702243
163	0xbda61094	-0.08108631
164	0xbe96f1d5	-0.29481378
165	0xbf2c3313	-0.67265433
166	0xbe03ce7b	-0.12871735
167	0x3e3a3b46	0.18186674
168	0x3e2a64ca	0.1664001
169	0x3e27bf9d	0.16381688
170	0x3e38d208	0.1804887
171	0x3e3d1325	0.18464334
172	0x3cd4be89	0.02596976
173	0xbe0d13e5	-0.1377712
174	0x3a2686f0	0.0006352505
175	0x3ea74bba	0.32674962
176	0xbd85ee5d	-0.06539605
177	0x3bce32ba	0.006292668
178	0x3d443696	0.04790362
179	0x3e05b921	0.13058902
180	0x3d65d2ec	0.056109354
181	0x3e9830f8	0.2972486
182	0x3caa9a20	0.020825446
183	0xbeaddb12	-0.339562
184	0xbdca8cc8	-0.09890133
185	0xbeaa273e	-0.33233064
186	0xbde3058c	-0.11085042
187	0x3e813870	0.2523837
188	0x3ecb0ef7	0.39659855
189	0xbd22a48c	-0.039707705
190	0xbe678a2a	-0.22611299
191	0x3c21fc86	0.009886866
192	0xbe742af9	-0.23844518
193	0xbf454136	-0.7705263
194	0x3e52dc88	0.20591938
195	0xbe9ecb81	-0.31014636
196	0x3e9c8e64	0.30577385
197	0xbdd00ce2	-0.10158707
198	0xbdd0442b	-0.10169252
199	0xbd9f2b41	-0.07771922
200	0xbd96cfa3	-0.07363822
201	0x3e3914f8	0.18074405
202	0xbcf27ec4	-0.029601462
203	0x3e265028	0.16241515
204	0x3d7f3a50	0.06231147
205	0x3db79a05	0.08964924
206	0x3d9b7511	0.07590688
207	0xbdcb537a	-0.09928031
208	0xbb139c50	-0.002252359
209	0x3dae4e25	0.08510999
210	0xbe8c4bc1	-0.27401546
211	0xbe03d509	-0.12874235
212	0x3e7bce0f	0.24590324
213	0x3c773cc0	0.0150901675
214	0xbe0b3c72	-0.13597277
215	0x3d294223	0.04132284
216	0x3e7096dd	0.2349505
217	0x3e813b53	0.25240573
218	0xbe428d2b	-0.18999164
219	0x3d17b9e2	0.037042506
220	0xbb3a5e25	-0.0028437462
221	0xbd56f5d2	-0.052480526
222	0x3e4c04a1	0.19923641
223	0x3e3d5f01	0.18493272
224	0xbcc5b1fe	-0.024132725
225	0xbbd961b7	-0.006633963
226	0xbed114da	-0.4083622
227	0x3e076095	0.13220437
228	0x3dfaa870	0.12239158
229	0x3e5ba1fe	0.21448514
230	0xbe047a65	-0.12937315
231	0xbe06f32e	-0.13178703
232	0x3d93dfa0	0.072203875
233	0xbe4b29be	-0.19840142
234	0xbc93fb81	-0.018064262
235	0x3d565dd2	0.052335568
236	0x3dd1978a	0.10233982
237	0x3e29b1e2	0.16571763
238	0x3c44c58f	0.012009992
239	0xbea12d00	-0.31479645
240	0xbdf1dd06	-0.11809735
241	0xbda24b5a	-0.079245284
242	0x3d5426a5	0.051794667
243	0x3e71f992	0.2363036
244	0x3d15db5a	0.036586143
245	0xbd76a129	-0.060212288
246	0xbe890051	-0.26758054
247	0xbe17f182	-0.14838222
248	0x3e2a92b0	0.1665752
249	0xbee94521	-0.45560554
250	0x3e5a8031	0.21337964
251	0x3d26da84	0.040735736
252	0xbd5a8966	-0.05335369
253	0xbc7a0446	-0.015259808
254	0xbe0fe687	-0.14052783
255	0xbe69f895	-0.22848733

14 f4 [32]
0	0xbc942423	-0.018083638
1	0xbdb574e8	-0.08860189
2	0x3fa0750d	1.2535721
3	0x3fc33d9f	1.525318
4	0x3f61ee2c	0.88254046
5	0xbe47d7bc	-0.1951589
6	0x3fe88045	1.8164145
7	0x3e586384	0.21131712
8	0x3fac8348	1.3477564
9	0x3cb87e92	0.02252129
10	0x3e855f47	0.26049253
11	0x3e0f080d	0.13967915
12	0xbcfef158	-0.031120941
13	0x3f9f73c2	1.2457201
14	0xc068ad79	-3.635588
15	0x3e6bb1e9	0.23017086
16	0xbe33c810	-0.17556787
17	0xbf1f2e68	-0.62180185
18	0x3f851f72	1.0400221
19	0xbe28bbcd	-0.1647789
20	0x3ff9ed2f	1.9525508
21	0x3f839d80	1.028244
22	0x3fc36dca	1.526788
23	0x3fd2fcc1	1.6483384
24	0x3c9e4c33	0.019323444
25	0x3fd6e66f	1.6789073
26	0x3d07ffb0	0.033202827
27	0x3f22ebd5	0.636411
28	0x3ec38a83	0.38191614
29	0x3f149742	0.580433
30	0x3f52f721	0.8240834
31	0x3f2e374a	0.68053114
